…
e_dir='/data/shan/CenterNet/src/lib/../../exp/multi_pose/hg_3x', scale=0.4, scores_thresh=0.1, seed=317, shift=0.1, std=array([[[0.2886383 , 0.27408165, 0.27809834]]], dtype=float32), task='multi_pose', test=False, test_scales=[1.0], trainval=False, val_intervals=5, vis_thresh=0.3, wh_weight=0.1)
==> initializing coco 2017 val data.
loading annotations into memory...
Done (t=0.28s)
creating index...
index created!
Loaded val 5000 samples
Creating model...
loaded ../models/multi_pose_hg_3x.pth, epoch 149
Before fusion model is HourglassNet(
  (pre): Sequential(
    (0): convolution(
      (conv): Conv2d(3, 128, kernel_size=(7, 7), stride=(2, 2), padding=(3, 3), bias=False)
      (bn): BatchNorm2d(128, eps=1e-05, momentum=0.1, affine=True, track_running_stats=True)
      (relu): ReLU(inplace=True)
    )
    (1): residual(
      (conv1): Conv2d(128, 256, kernel_size=(3, 3), stride=(2, 2), padding=(1, 1), bias=False)
      (bn1): BatchNorm2d(256, eps=1e-05, momentum=0.1, affine=True, track_running_stats=True)
      (relu1): ReLU(inplace=True)
      (conv2): Conv2d(256, 256, kernel_size=(3, 3), stride=(1, 1), padding=(1, 1), bias=False)
      (bn2): BatchNorm2d(256, eps=1e-05, momentum=0.1, affine=True, track_running_stats=True)
      (skip): Sequential(
        (0): Conv2d(128, 256, kernel_size=(1, 1), stride=(2, 2), bias=False)
        (1): BatchNorm2d(256, eps=1e-05, momentum=0.1, affine=True, track_running_stats=True)
      )
      (relu): ReLU(inplace=True)
    )
  )
  (kps): ModuleList(
    (0): kp_module(
      (up1): Sequential(
        (0): residual(
          (conv1): Conv2d(256, 256, kernel_size=(3, 3), stride=(1, 1), padding=(1, 1), bias=False)
          (bn1): BatchNorm2d(256, eps=1e-05, momentum=0.1, affine=True, track_running_stats=True)
          (relu1): ReLU(inplace=True)
          (conv2): Conv2d(256, 256, kernel_size=(3, 3), stride=(1, 1), padding=(1, 1), bias=False)
          (bn2): BatchNorm2d(256, eps=1e-05, momentum=0.1, affine=True, track_running_stats=True)
          (skip): Sequential()
          (relu): ReLU(inplace=True)
        )
        (1): residual(
          (conv1): Conv2d(256, 256, kernel_size=(3, 3), stride=(1, 1), padding=(1, 1), bias=False)
          (bn1): BatchNorm2d(256, eps=1e-05, momentum=0.1, affine=True, track_running_stats=True)
          (relu1): ReLU(inplace=True)
          (conv2): Conv2d(256, 256, kernel_size=(3, 3), stride=(1, 1), padding=(1, 1), bias=False)
          (bn2): BatchNorm2d(256, eps=1e-05, momentum=0.1, affine=True, track_running_stats=True)
          (skip): Sequential()
          (relu): ReLU(inplace=True)
        )
      )
      (max1): Sequential()
      (low1): Sequential(
        (0): residual(
          (conv1): Conv2d(256, 256, kernel_size=(3, 3), stride=(2, 2), padding=(1, 1), bias=False)
          (bn1): BatchNorm2d(256, eps=1e-05, momentum=0.1, affine=True, track_running_stats=True)
          (relu1): ReLU(inplace=True)
          (conv2): Conv2d(256, 256, kernel_size=(3, 3), stride=(1, 1), padding=(1, 1), bias=False)
          (bn2): BatchNorm2d(256, eps=1e-05, momentum=0.1, affine=True, track_running_stats=True)
          (skip): Sequential(
            (0): Conv2d(256, 256, kernel_size=(1, 1), stride=(2, 2), bias=False)
            (1): BatchNorm2d(256, eps=1e-05, momentum=0.1, affine=True, track_running_stats=True)
          )
          (relu): ReLU(inplace=True)
        )
        (1): residual(
          (conv1): Conv2d(256, 256, kernel_size=(3, 3), stride=(1, 1), padding=(1, 1), bias=False)
          (bn1): BatchNorm2d(256, eps=1e-05, momentum=0.1, affine=True, track_running_stats=True)
          (relu1): ReLU(inplace=True)
          (conv2): Conv2d(256, 256, kernel_size=(3, 3), stride=(1, 1), padding=(1, 1), bias=False)
          (bn2): BatchNorm2d(256, eps=1e-05, momentum=0.1, affine=True, track_running_stats=True)
          (skip): Sequential()
          (relu): ReLU(inplace=True)
        )
      )
      (low2): kp_module(
        (up1): Sequential(
          (0): residual(
            (conv1): Conv2d(256, 256, kernel_size=(3, 3), stride=(1, 1), padding=(1, 1), bias=False)
            (bn1): BatchNorm2d(256, eps=1e-05, momentum=0.1, affine=True, track_running_stats=True)
            (relu1): ReLU(inplace=True)
            (conv2): Conv2d(256, 256, kernel_size=(3, 3), stride=(1, 1), padding=(1, 1), bias=False)
            (bn2): BatchNorm2d(256, eps=1e-05, momentum=0.1, affine=True, track_running_stats=True)
            (skip): Sequential()
            (relu): ReLU(inplace=True)
          )
          (1): residual(
            (conv1): Conv2d(256, 256, kernel_size=(3, 3), stride=(1, 1), padding=(1, 1), bias=False)
            (bn1): BatchNorm2d(256, eps=1e-05, momentum=0.1, affine=True, track_running_stats=True)
            (relu1): ReLU(inplace=True)
            (conv2): Conv2d(256, 256, kernel_size=(3, 3), stride=(1, 1), padding=(1, 1), bias=False)
            (bn2): BatchNorm2d(256, eps=1e-05, momentum=0.1, affine=True, track_running_stats=True)
            (skip): Sequential()
            (relu): ReLU(inplace=True)
          )
        )
        (max1): Sequential()
        (low1): Sequential(
          (0): residual(
            (conv1): Conv2d(256, 384, kernel_size=(3, 3), stride=(2, 2), padding=(1, 1), bias=False)
            (bn1): BatchNorm2d(384, eps=1e-05, momentum=0.1, affine=True, track_running_stats=True)
            (relu1): ReLU(inplace=True)
            (conv2): Conv2d(384, 384, kernel_size=(3, 3), stride=(1, 1), padding=(1, 1), bias=False)
            (bn2): BatchNorm2d(384, eps=1e-05, momentum=0.1, affine=True, track_running_stats=True)
            (skip): Sequential(
              (0): Conv2d(256, 384, kernel_size=(1, 1), stride=(2, 2), bias=False)
              (1): BatchNorm2d(384, eps=1e-05, momentum=0.1, affine=True, track_running_stats=True)
            )
            (relu): ReLU(inplace=True)
          )
          (1): residual(
            (conv1): Conv2d(384, 384, kernel_size=(3, 3), stride=(1, 1), padding=(1, 1), bias=False)
            (bn1): BatchNorm2d(384, eps=1e-05, momentum=0.1, affine=True, track_running_stats=True)
            (relu1): ReLU(inplace=True)
            (conv2): Conv2d(384, 384, kernel_size=(3, 3), stride=(1, 1), padding=(1, 1), bias=False)
            (bn2): BatchNorm2d(384, eps=1e-05, momentum=0.1, affine=True, track_running_stats=True)
            (skip): Sequential()
            (relu): ReLU(inplace=True)
          )
        )
        (low2): kp_module(
          (up1): Sequential(
            (0): residual(
              (conv1): Conv2d(384, 384, kernel_size=(3, 3), stride=(1, 1), padding=(1, 1), bias=False)
              (bn1): BatchNorm2d(384, eps=1e-05, momentum=0.1, affine=True, track_running_stats=True)
              (relu1): ReLU(inplace=True)
              (conv2): Conv2d(384, 384, kernel_size=(3, 3), stride=(1, 1), padding=(1, 1), bias=False)
              (bn2): BatchNorm2d(384, eps=1e-05, momentum=0.1, affine=True, track_running_stats=True)
              (skip): Sequential()
              (relu): ReLU(inplace=True)
            )
            (1): residual(
              (conv1): Conv2d(384, 384, kernel_size=(3, 3), stride=(1, 1), padding=(1, 1), bias=False)
              (bn1): BatchNorm2d(384, eps=1e-05, momentum=0.1, affine=True, track_running_stats=True)
              (relu1): ReLU(inplace=True)
              (conv2): Conv2d(384, 384, kernel_size=(3, 3), stride=(1, 1), padding=(1, 1), bias=False)
              (bn2): BatchNorm2d(384, eps=1e-05, momentum=0.1, affine=True, track_running_stats=True)
              (skip): Sequential()
              (relu): ReLU(inplace=True)
            )
          )
          (max1): Sequential()
          (low1): Sequential(
            (0): residual(
              (conv1): Conv2d(384, 384, kernel_size=(3, 3), stride=(2, 2), padding=(1, 1), bias=False)
              (bn1): BatchNorm2d(384, eps=1e-05, momentum=0.1, affine=True, track_running_stats=True)
              (relu1): ReLU(inplace=True)
              (conv2): Conv2d(384, 384, kernel_size=(3, 3), stride=(1, 1), padding=(1, 1), bias=False)
              (bn2): BatchNorm2d(384, eps=1e-05, momentum=0.1, affine=True, track_running_stats=True)
              (skip): Sequential(
                (0): Conv2d(384, 384, kernel_size=(1, 1), stride=(2, 2), bias=False)
                (1): BatchNorm2d(384, eps=1e-05, momentum=0.1, affine=True, track_running_stats=True)
              )
              (relu): ReLU(inplace=True)
            )
            (1): residual(
              (conv1): Conv2d(384, 384, kernel_size=(3, 3), stride=(1, 1), padding=(1, 1), bias=False)
              (bn1): BatchNorm2d(384, eps=1e-05, momentum=0.1, affine=True, track_running_stats=True)
              (relu1): ReLU(inplace=True)
              (conv2): Conv2d(384, 384, kernel_size=(3, 3), stride=(1, 1), padding=(1, 1), bias=False)
              (bn2): BatchNorm2d(384, eps=1e-05, momentum=0.1, affine=True, track_running_stats=True)
              (skip): Sequential()
              (relu): ReLU(inplace=True)
            )
          )
          (low2): kp_module(
            (up1): Sequential(
              (0): residual(
                (conv1): Conv2d(384, 384, kernel_size=(3, 3), stride=(1, 1), padding=(1, 1), bias=False)
                (bn1): BatchNorm2d(384, eps=1e-05, momentum=0.1, affine=True, track_running_stats=True)
                (relu1): ReLU(inplace=True)
                (conv2): Conv2d(384, 384, kernel_size=(3, 3), stride=(1, 1), padding=(1, 1), bias=False)
                (bn2): BatchNorm2d(384, eps=1e-05, momentum=0.1, affine=True, track_running_stats=True)
                (skip): Sequential()
                (relu): ReLU(inplace=True)
              )
              (1): residual(
                (conv1): Conv2d(384, 384, kernel_size=(3, 3), stride=(1, 1), padding=(1, 1), bias=False)
                (bn1): BatchNorm2d(384, eps=1e-05, momentum=0.1, affine=True, track_running_stats=True)
                (relu1): ReLU(inplace=True)
                (conv2): Conv2d(384, 384, kernel_size=(3, 3), stride=(1, 1), padding=(1, 1), bias=False)
                (bn2): BatchNorm2d(384, eps=1e-05, momentum=0.1, affine=True, track_running_stats=True)
                (skip): Sequential()
                (relu): ReLU(inplace=True)
              )
            )
            (max1): Sequential()
            (low1): Sequential(
              (0): residual(
                (conv1): Conv2d(384, 384, kernel_size=(3, 3), stride=(2, 2), padding=(1, 1), bias=False)
                (bn1): BatchNorm2d(384, eps=1e-05, momentum=0.1, affine=True, track_running_stats=True)
                (relu1): ReLU(inplace=True)
                (conv2): Conv2d(384, 384, kernel_size=(3, 3), stride=(1, 1), padding=(1, 1), bias=False)
                (bn2): BatchNorm2d(384, eps=1e-05, momentum=0.1, affine=True, track_running_stats=True)
                (skip): Sequential(
                  (0): Conv2d(384, 384, kernel_size=(1, 1), stride=(2, 2), bias=False)
                  (1): BatchNorm2d(384, eps=1e-05, momentum=0.1, affine=True, track_running_stats=True)
                )
                (relu): ReLU(inplace=True)
              )
              (1): residual(
                (conv1): Conv2d(384, 384, kernel_size=(3, 3), stride=(1, 1), padding=(1, 1), bias=False)
                (bn1): BatchNorm2d(384, eps=1e-05, momentum=0.1, affine=True, track_running_stats=True)
                (relu1): ReLU(inplace=True)
                (conv2): Conv2d(384, 384, kernel_size=(3, 3), stride=(1, 1), padding=(1, 1), bias=False)
                (bn2): BatchNorm2d(384, eps=1e-05, momentum=0.1, affine=True, track_running_stats=True)
                (skip): Sequential()
                (relu): ReLU(inplace=True)
              )
            )
            (low2): kp_module(
              (up1): Sequential(
                (0): residual(
                  (conv1): Conv2d(384, 384, kernel_size=(3, 3), stride=(1, 1), padding=(1, 1), bias=False)
                  (bn1): BatchNorm2d(384, eps=1e-05, momentum=0.1, affine=True, track_running_stats=True)
                  (relu1): ReLU(inplace=True)
                  (conv2): Conv2d(384, 384, kernel_size=(3, 3), stride=(1, 1), padding=(1, 1), bias=False)
                  (bn2): BatchNorm2d(384, eps=1e-05, momentum=0.1, affine=True, track_running_stats=True)
                  (skip): Sequential()
                  (relu): ReLU(inplace=True)
                )
                (1): residual(
                  (conv1): Conv2d(384, 384, kernel_size=(3, 3), stride=(1, 1), padding=(1, 1), bias=False)
                  (bn1): BatchNorm2d(384, eps=1e-05, momentum=0.1, affine=True, track_running_stats=True)
                  (relu1): ReLU(inplace=True)
                  (conv2): Conv2d(384, 384, kernel_size=(3, 3), stride=(1, 1), padding=(1, 1), bias=False)
                  (bn2): BatchNorm2d(384, eps=1e-05, momentum=0.1, affine=True, track_running_stats=True)
                  (skip): Sequential()
                  (relu): ReLU(inplace=True)
                )
              )
              (max1): Sequential()
              (low1): Sequential(
                (0): residual(
                  (conv1): Conv2d(384, 512, kernel_size=(3, 3), stride=(2, 2), padding=(1, 1), bias=False)
                  (bn1): BatchNorm2d(512, eps=1e-05, momentum=0.1, affine=True, track_running_stats=True)
                  (relu1): ReLU(inplace=True)
                  (conv2): Conv2d(512, 512, kernel_size=(3, 3), stride=(1, 1), padding=(1, 1), bias=False)
                  (bn2): BatchNorm2d(512, eps=1e-05, momentum=0.1, affine=True, track_running_stats=True)
                  (skip): Sequential(
                    (0): Conv2d(384, 512, kernel_size=(1, 1), stride=(2, 2), bias=False)
                    (1): BatchNorm2d(512, eps=1e-05, momentum=0.1, affine=True, track_running_stats=True)
                  )
                  (relu): ReLU(inplace=True)
                )
                (1): residual(
                  (conv1): Conv2d(512, 512, kernel_size=(3, 3), stride=(1, 1), padding=(1, 1), bias=False)
                  (bn1): BatchNorm2d(512, eps=1e-05, momentum=0.1, affine=True, track_running_stats=True)
                  (relu1): ReLU(inplace=True)
                  (conv2): Conv2d(512, 512, kernel_size=(3, 3), stride=(1, 1), padding=(1, 1), bias=False)
                  (bn2): BatchNorm2d(512, eps=1e-05, momentum=0.1, affine=True, track_running_stats=True)
                  (skip): Sequential()
                  (relu): ReLU(inplace=True)
                )
              )
              (low2): Sequential(
                (0): residual(
                  (conv1): Conv2d(512, 512, kernel_size=(3, 3), stride=(1, 1), padding=(1, 1), bias=False)
                  (bn1): BatchNorm2d(512, eps=1e-05, momentum=0.1, affine=True, track_running_stats=True)
                  (relu1): ReLU(inplace=True)
                  (conv2): Conv2d(512, 512, kernel_size=(3, 3), stride=(1, 1), padding=(1, 1), bias=False)
                  (bn2): BatchNorm2d(512, eps=1e-05, momentum=0.1, affine=True, track_running_stats=True)
                  (skip): Sequential()
                  (relu): ReLU(inplace=True)
                )
                (1): residual(
                  (conv1): Conv2d(512, 512, kernel_size=(3, 3), stride=(1, 1), padding=(1, 1), bias=False)
                  (bn1): BatchNorm2d(512, eps=1e-05, momentum=0.1, affine=True, track_running_stats=True)
                  (relu1): ReLU(inplace=True)
                  (conv2): Conv2d(512, 512, kernel_size=(3, 3), stride=(1, 1), padding=(1, 1), bias=False)
                  (bn2): BatchNorm2d(512, eps=1e-05, momentum=0.1, affine=True, track_running_stats=True)
                  (skip): Sequential()
                  (relu): ReLU(inplace=True)
                )
                (2): residual(
                  (conv1): Conv2d(512, 512, kernel_size=(3, 3), stride=(1, 1), padding=(1, 1), bias=False)
                  (bn1): BatchNorm2d(512, eps=1e-05, momentum=0.1, affine=True, track_running_stats=True)
                  (relu1): ReLU(inplace=True)
                  (conv2): Conv2d(512, 512, kernel_size=(3, 3), stride=(1, 1), padding=(1, 1), bias=False)
                  (bn2): BatchNorm2d(512, eps=1e-05, momentum=0.1, affine=True, track_running_stats=True)
                  (skip): Sequential()
                  (relu): ReLU(inplace=True)
                )
                (3): residual(
                  (conv1): Conv2d(512, 512, kernel_size=(3, 3), stride=(1, 1), padding=(1, 1), bias=False)
                  (bn1): BatchNorm2d(512, eps=1e-05, momentum=0.1, affine=True, track_running_stats=True)
                  (relu1): ReLU(inplace=True)
                  (conv2): Conv2d(512, 512, kernel_size=(3, 3), stride=(1, 1), padding=(1, 1), bias=False)
                  (bn2): BatchNorm2d(512, eps=1e-05, momentum=0.1, affine=True, track_running_stats=True)
                  (skip): Sequential()
                  (relu): ReLU(inplace=True)
                )
              )
              (low3): Sequential(
                (0): residual(
                  (conv1): Conv2d(512, 512, kernel_size=(3, 3), stride=(1, 1), padding=(1, 1), bias=False)
                  (bn1): BatchNorm2d(512, eps=1e-05, momentum=0.1, affine=True, track_running_stats=True)
                  (relu1): ReLU(inplace=True)
                  (conv2): Conv2d(512, 512, kernel_size=(3, 3), stride=(1, 1), padding=(1, 1), bias=False)
                  (bn2): BatchNorm2d(512, eps=1e-05, momentum=0.1, affine=True, track_running_stats=True)
                  (skip): Sequential()
                  (relu): ReLU(inplace=True)
                )
                (1): residual(
                  (conv1): Conv2d(512, 384, kernel_size=(3, 3), stride=(1, 1), padding=(1, 1), bias=False)
                  (bn1): BatchNorm2d(384, eps=1e-05, momentum=0.1, affine=True, track_running_stats=True)
                  (relu1): ReLU(inplace=True)
                  (conv2): Conv2d(384, 384, kernel_size=(3, 3), stride=(1, 1), padding=(1, 1), bias=False)
                  (bn2): BatchNorm2d(384, eps=1e-05, momentum=0.1, affine=True, track_running_stats=True)
                  (skip): Sequential(
                    (0): Conv2d(512, 384, kernel_size=(1, 1), stride=(1, 1), bias=False)
                    (1): BatchNorm2d(384, eps=1e-05, momentum=0.1, affine=True, track_running_stats=True)
                  )
                  (relu): ReLU(inplace=True)
                )
              )
              (up2): Upsample(scale_factor=2.0, mode=nearest)
              (merge): MergeUp()
            )
            (low3): Sequential(
              (0): residual(
                (conv1): Conv2d(384, 384, kernel_size=(3, 3), stride=(1, 1), padding=(1, 1), bias=False)
                (bn1): BatchNorm2d(384, eps=1e-05, momentum=0.1, affine=True, track_running_stats=True)
                (relu1): ReLU(inplace=True)
                (conv2): Conv2d(384, 384, kernel_size=(3, 3), stride=(1, 1), padding=(1, 1), bias=False)
                (bn2): BatchNorm2d(384, eps=1e-05, momentum=0.1, affine=True, track_running_stats=True)
                (skip): Sequential()
                (relu): ReLU(inplace=True)
              )
              (1): residual(
                (conv1): Conv2d(384, 384, kernel_size=(3, 3), stride=(1, 1), padding=(1, 1), bias=False)
                (bn1): BatchNorm2d(384, eps=1e-05, momentum=0.1, affine=True, track_running_stats=True)
                (relu1): ReLU(inplace=True)
                (conv2): Conv2d(384, 384, kernel_size=(3, 3), stride=(1, 1), padding=(1, 1), bias=False)
                (bn2): BatchNorm2d(384, eps=1e-05, momentum=0.1, affine=True, track_running_stats=True)
                (skip): Sequential()
                (relu): ReLU(inplace=True)
              )
            )
            (up2): Upsample(scale_factor=2.0, mode=nearest)
            (merge): MergeUp()
          )
          (low3): Sequential(
            (0): residual(
              (conv1): Conv2d(384, 384, kernel_size=(3, 3), stride=(1, 1), padding=(1, 1), bias=False)
              (bn1): BatchNorm2d(384, eps=1e-05, momentum=0.1, affine=True, track_running_stats=True)
              (relu1): ReLU(inplace=True)
              (conv2): Conv2d(384, 384, kernel_size=(3, 3), stride=(1, 1), padding=(1, 1), bias=False)
              (bn2): BatchNorm2d(384, eps=1e-05, momentum=0.1, affine=True, track_running_stats=True)
              (skip): Sequential()
              (relu): ReLU(inplace=True)
            )
            (1): residual(
              (conv1): Conv2d(384, 384, kernel_size=(3, 3), stride=(1, 1), padding=(1, 1), bias=False)
              (bn1): BatchNorm2d(384, eps=1e-05, momentum=0.1, affine=True, track_running_stats=True)
              (relu1): ReLU(inplace=True)
              (conv2): Conv2d(384, 384, kernel_size=(3, 3), stride=(1, 1), padding=(1, 1), bias=False)
              (bn2): BatchNorm2d(384, eps=1e-05, momentum=0.1, affine=True, track_running_stats=True)
              (skip): Sequential()
              (relu): ReLU(inplace=True)
            )
          )
          (up2): Upsample(scale_factor=2.0, mode=nearest)
          (merge): MergeUp()
        )
        (low3): Sequential(
          (0): residual(
            (conv1): Conv2d(384, 384, kernel_size=(3, 3), stride=(1, 1), padding=(1, 1), bias=False)
            (bn1): BatchNorm2d(384, eps=1e-05, momentum=0.1, affine=True, track_running_stats=True)
            (relu1): ReLU(inplace=True)
            (conv2): Conv2d(384, 384, kernel_size=(3, 3), stride=(1, 1), padding=(1, 1), bias=False)
            (bn2): BatchNorm2d(384, eps=1e-05, momentum=0.1, affine=True, track_running_stats=True)
            (skip): Sequential()
            (relu): ReLU(inplace=True)
          )
          (1): residual(
            (conv1): Conv2d(384, 256, kernel_size=(3, 3), stride=(1, 1), padding=(1, 1), bias=False)
            (bn1): BatchNorm2d(256, eps=1e-05, momentum=0.1, affine=True, track_running_stats=True)
            (relu1): ReLU(inplace=True)
            (conv2): Conv2d(256, 256, kernel_size=(3, 3), stride=(1, 1), padding=(1, 1), bias=False)
            (bn2): BatchNorm2d(256, eps=1e-05, momentum=0.1, affine=True, track_running_stats=True)
            (skip): Sequential(
              (0): Conv2d(384, 256, kernel_size=(1, 1), stride=(1, 1), bias=False)
              (1): BatchNorm2d(256, eps=1e-05, momentum=0.1, affine=True, track_running_stats=True)
            )
            (relu): ReLU(inplace=True)
          )
        )
        (up2): Upsample(scale_factor=2.0, mode=nearest)
        (merge): MergeUp()
      )
      (low3): Sequential(
        (0): residual(
          (conv1): Conv2d(256, 256, kernel_size=(3, 3), stride=(1, 1), padding=(1, 1), bias=False)
          (bn1): BatchNorm2d(256, eps=1e-05, momentum=0.1, affine=True, track_running_stats=True)
          (relu1): ReLU(inplace=True)
          (conv2): Conv2d(256, 256, kernel_size=(3, 3), stride=(1, 1), padding=(1, 1), bias=False)
          (bn2): BatchNorm2d(256, eps=1e-05, momentum=0.1, affine=True, track_running_stats=True)
          (skip): Sequential()
          (relu): ReLU(inplace=True)
        )
        (1): residual(
          (conv1): Conv2d(256, 256, kernel_size=(3, 3), stride=(1, 1), padding=(1, 1), bias=False)
          (bn1): BatchNorm2d(256, eps=1e-05, momentum=0.1, affine=True, track_running_stats=True)
          (relu1): ReLU(inplace=True)
          (conv2): Conv2d(256, 256, kernel_size=(3, 3), stride=(1, 1), padding=(1, 1), bias=False)
          (bn2): BatchNorm2d(256, eps=1e-05, momentum=0.1, affine=True, track_running_stats=True)
          (skip): Sequential()
          (relu): ReLU(inplace=True)
        )
      )
      (up2): Upsample(scale_factor=2.0, mode=nearest)
      (merge): MergeUp()
    )
    (1): kp_module(
      (up1): Sequential(
        (0): residual(
          (conv1): Conv2d(256, 256, kernel_size=(3, 3), stride=(1, 1), padding=(1, 1), bias=False)
          (bn1): BatchNorm2d(256, eps=1e-05, momentum=0.1, affine=True, track_running_stats=True)
          (relu1): ReLU(inplace=True)
          (conv2): Conv2d(256, 256, kernel_size=(3, 3), stride=(1, 1), padding=(1, 1), bias=False)
          (bn2): BatchNorm2d(256, eps=1e-05, momentum=0.1, affine=True, track_running_stats=True)
          (skip): Sequential()
          (relu): ReLU(inplace=True)
        )
        (1): residual(
          (conv1): Conv2d(256, 256, kernel_size=(3, 3), stride=(1, 1), padding=(1, 1), bias=False)
          (bn1): BatchNorm2d(256, eps=1e-05, momentum=0.1, affine=True, track_running_stats=True)
          (relu1): ReLU(inplace=True)
          (conv2): Conv2d(256, 256, kernel_size=(3, 3), stride=(1, 1), padding=(1, 1), bias=False)
          (bn2): BatchNorm2d(256, eps=1e-05, momentum=0.1, affine=True, track_running_stats=True)
          (skip): Sequential()
          (relu): ReLU(inplace=True)
        )
      )
      (max1): Sequential()
      (low1): Sequential(
        (0): residual(
          (conv1): Conv2d(256, 256, kernel_size=(3, 3), stride=(2, 2), padding=(1, 1), bias=False)
          (bn1): BatchNorm2d(256, eps=1e-05, momentum=0.1, affine=True, track_running_stats=True)
          (relu1): ReLU(inplace=True)
          (conv2): Conv2d(256, 256, kernel_size=(3, 3), stride=(1, 1), padding=(1, 1), bias=False)
          (bn2): BatchNorm2d(256, eps=1e-05, momentum=0.1, affine=True, track_running_stats=True)
          (skip): Sequential(
            (0): Conv2d(256, 256, kernel_size=(1, 1), stride=(2, 2), bias=False)
            (1): BatchNorm2d(256, eps=1e-05, momentum=0.1, affine=True, track_running_stats=True)
          )
          (relu): ReLU(inplace=True)
        )
        (1): residual(
          (conv1): Conv2d(256, 256, kernel_size=(3, 3), stride=(1, 1), padding=(1, 1), bias=False)
          (bn1): BatchNorm2d(256, eps=1e-05, momentum=0.1, affine=True, track_running_stats=True)
          (relu1): ReLU(inplace=True)
          (conv2): Conv2d(256, 256, kernel_size=(3, 3), stride=(1, 1), padding=(1, 1), bias=False)
          (bn2): BatchNorm2d(256, eps=1e-05, momentum=0.1, affine=True, track_running_stats=True)
          (skip): Sequential()
          (relu): ReLU(inplace=True)
        )
      )
      (low2): kp_module(
        (up1): Sequential(
          (0): residual(
            (conv1): Conv2d(256, 256, kernel_size=(3, 3), stride=(1, 1), padding=(1, 1), bias=False)
            (bn1): BatchNorm2d(256, eps=1e-05, momentum=0.1, affine=True, track_running_stats=True)
            (relu1): ReLU(inplace=True)
            (conv2): Conv2d(256, 256, kernel_size=(3, 3), stride=(1, 1), padding=(1, 1), bias=False)
            (bn2): BatchNorm2d(256, eps=1e-05, momentum=0.1, affine=True, track_running_stats=True)
            (skip): Sequential()
            (relu): ReLU(inplace=True)
          )
          (1): residual(
            (conv1): Conv2d(256, 256, kernel_size=(3, 3), stride=(1, 1), padding=(1, 1), bias=False)
            (bn1): BatchNorm2d(256, eps=1e-05, momentum=0.1, affine=True, track_running_stats=True)
            (relu1): ReLU(inplace=True)
            (conv2): Conv2d(256, 256, kernel_size=(3, 3), stride=(1, 1), padding=(1, 1), bias=False)
            (bn2): BatchNorm2d(256, eps=1e-05, momentum=0.1, affine=True, track_running_stats=True)
            (skip): Sequential()
            (relu): ReLU(inplace=True)
          )
        )
        (max1): Sequential()
        (low1): Sequential(
          (0): residual(
            (conv1): Conv2d(256, 384, kernel_size=(3, 3), stride=(2, 2), padding=(1, 1), bias=False)
            (bn1): BatchNorm2d(384, eps=1e-05, momentum=0.1, affine=True, track_running_stats=True)
            (relu1): ReLU(inplace=True)
            (conv2): Conv2d(384, 384, kernel_size=(3, 3), stride=(1, 1), padding=(1, 1), bias=False)
            (bn2): BatchNorm2d(384, eps=1e-05, momentum=0.1, affine=True, track_running_stats=True)
            (skip): Sequential(
              (0): Conv2d(256, 384, kernel_size=(1, 1), stride=(2, 2), bias=False)
              (1): BatchNorm2d(384, eps=1e-05, momentum=0.1, affine=True, track_running_stats=True)
            )
            (relu): ReLU(inplace=True)
          )
          (1): residual(
            (conv1): Conv2d(384, 384, kernel_size=(3, 3), stride=(1, 1), padding=(1, 1), bias=False)
            (bn1): BatchNorm2d(384, eps=1e-05, momentum=0.1, affine=True, track_running_stats=True)
            (relu1): ReLU(inplace=True)
            (conv2): Conv2d(384, 384, kernel_size=(3, 3), stride=(1, 1), padding=(1, 1), bias=False)
            (bn2): BatchNorm2d(384, eps=1e-05, momentum=0.1, affine=True, track_running_stats=True)
            (skip): Sequential()
            (relu): ReLU(inplace=True)
          )
        )
        (low2): kp_module(
          (up1): Sequential(
            (0): residual(
              (conv1): Conv2d(384, 384, kernel_size=(3, 3), stride=(1, 1), padding=(1, 1), bias=False)
              (bn1): BatchNorm2d(384, eps=1e-05, momentum=0.1, affine=True, track_running_stats=True)
              (relu1): ReLU(inplace=True)
              (conv2): Conv2d(384, 384, kernel_size=(3, 3), stride=(1, 1), padding=(1, 1), bias=False)
              (bn2): BatchNorm2d(384, eps=1e-05, momentum=0.1, affine=True, track_running_stats=True)
              (skip): Sequential()
              (relu): ReLU(inplace=True)
            )
            (1): residual(
              (conv1): Conv2d(384, 384, kernel_size=(3, 3), stride=(1, 1), padding=(1, 1), bias=False)
              (bn1): BatchNorm2d(384, eps=1e-05, momentum=0.1, affine=True, track_running_stats=True)
              (relu1): ReLU(inplace=True)
              (conv2): Conv2d(384, 384, kernel_size=(3, 3), stride=(1, 1), padding=(1, 1), bias=False)
              (bn2): BatchNorm2d(384, eps=1e-05, momentum=0.1, affine=True, track_running_stats=True)
              (skip): Sequential()
              (relu): ReLU(inplace=True)
            )
          )
          (max1): Sequential()
          (low1): Sequential(
            (0): residual(
              (conv1): Conv2d(384, 384, kernel_size=(3, 3), stride=(2, 2), padding=(1, 1), bias=False)
              (bn1): BatchNorm2d(384, eps=1e-05, momentum=0.1, affine=True, track_running_stats=True)
              (relu1): ReLU(inplace=True)
              (conv2): Conv2d(384, 384, kernel_size=(3, 3), stride=(1, 1), padding=(1, 1), bias=False)
              (bn2): BatchNorm2d(384, eps=1e-05, momentum=0.1, affine=True, track_running_stats=True)
              (skip): Sequential(
                (0): Conv2d(384, 384, kernel_size=(1, 1), stride=(2, 2), bias=False)
                (1): BatchNorm2d(384, eps=1e-05, momentum=0.1, affine=True, track_running_stats=True)
              )
              (relu): ReLU(inplace=True)
            )
            (1): residual(
              (conv1): Conv2d(384, 384, kernel_size=(3, 3), stride=(1, 1), padding=(1, 1), bias=False)
              (bn1): BatchNorm2d(384, eps=1e-05, momentum=0.1, affine=True, track_running_stats=True)
              (relu1): ReLU(inplace=True)
              (conv2): Conv2d(384, 384, kernel_size=(3, 3), stride=(1, 1), padding=(1, 1), bias=False)
              (bn2): BatchNorm2d(384, eps=1e-05, momentum=0.1, affine=True, track_running_stats=True)
              (skip): Sequential()
              (relu): ReLU(inplace=True)
            )
          )
          (low2): kp_module(
            (up1): Sequential(
              (0): residual(
                (conv1): Conv2d(384, 384, kernel_size=(3, 3), stride=(1, 1), padding=(1, 1), bias=False)
                (bn1): BatchNorm2d(384, eps=1e-05, momentum=0.1, affine=True, track_running_stats=True)
                (relu1): ReLU(inplace=True)
                (conv2): Conv2d(384, 384, kernel_size=(3, 3), stride=(1, 1), padding=(1, 1), bias=False)
                (bn2): BatchNorm2d(384, eps=1e-05, momentum=0.1, affine=True, track_running_stats=True)
                (skip): Sequential()
                (relu): ReLU(inplace=True)
              )
              (1): residual(
                (conv1): Conv2d(384, 384, kernel_size=(3, 3), stride=(1, 1), padding=(1, 1), bias=False)
                (bn1): BatchNorm2d(384, eps=1e-05, momentum=0.1, affine=True, track_running_stats=True)
                (relu1): ReLU(inplace=True)
                (conv2): Conv2d(384, 384, kernel_size=(3, 3), stride=(1, 1), padding=(1, 1), bias=False)
                (bn2): BatchNorm2d(384, eps=1e-05, momentum=0.1, affine=True, track_running_stats=True)
                (skip): Sequential()
                (relu): ReLU(inplace=True)
              )
            )
            (max1): Sequential()
            (low1): Sequential(
              (0): residual(
                (conv1): Conv2d(384, 384, kernel_size=(3, 3), stride=(2, 2), padding=(1, 1), bias=False)
                (bn1): BatchNorm2d(384, eps=1e-05, momentum=0.1, affine=True, track_running_stats=True)
                (relu1): ReLU(inplace=True)
                (conv2): Conv2d(384, 384, kernel_size=(3, 3), stride=(1, 1), padding=(1, 1), bias=False)
                (bn2): BatchNorm2d(384, eps=1e-05, momentum=0.1, affine=True, track_running_stats=True)
                (skip): Sequential(
                  (0): Conv2d(384, 384, kernel_size=(1, 1), stride=(2, 2), bias=False)
                  (1): BatchNorm2d(384, eps=1e-05, momentum=0.1, affine=True, track_running_stats=True)
                )
                (relu): ReLU(inplace=True)
              )
              (1): residual(
                (conv1): Conv2d(384, 384, kernel_size=(3, 3), stride=(1, 1), padding=(1, 1), bias=False)
                (bn1): BatchNorm2d(384, eps=1e-05, momentum=0.1, affine=True, track_running_stats=True)
                (relu1): ReLU(inplace=True)
                (conv2): Conv2d(384, 384, kernel_size=(3, 3), stride=(1, 1), padding=(1, 1), bias=False)
                (bn2): BatchNorm2d(384, eps=1e-05, momentum=0.1, affine=True, track_running_stats=True)
                (skip): Sequential()
                (relu): ReLU(inplace=True)
              )
            )
            (low2): kp_module(
              (up1): Sequential(
                (0): residual(
                  (conv1): Conv2d(384, 384, kernel_size=(3, 3), stride=(1, 1), padding=(1, 1), bias=False)
                  (bn1): BatchNorm2d(384, eps=1e-05, momentum=0.1, affine=True, track_running_stats=True)
                  (relu1): ReLU(inplace=True)
                  (conv2): Conv2d(384, 384, kernel_size=(3, 3), stride=(1, 1), padding=(1, 1), bias=False)
                  (bn2): BatchNorm2d(384, eps=1e-05, momentum=0.1, affine=True, track_running_stats=True)
                  (skip): Sequential()
                  (relu): ReLU(inplace=True)
                )
                (1): residual(
                  (conv1): Conv2d(384, 384, kernel_size=(3, 3), stride=(1, 1), padding=(1, 1), bias=False)
                  (bn1): BatchNorm2d(384, eps=1e-05, momentum=0.1, affine=True, track_running_stats=True)
                  (relu1): ReLU(inplace=True)
                  (conv2): Conv2d(384, 384, kernel_size=(3, 3), stride=(1, 1), padding=(1, 1), bias=False)
                  (bn2): BatchNorm2d(384, eps=1e-05, momentum=0.1, affine=True, track_running_stats=True)
                  (skip): Sequential()
                  (relu): ReLU(inplace=True)
                )
              )
              (max1): Sequential()
              (low1): Sequential(
                (0): residual(
                  (conv1): Conv2d(384, 512, kernel_size=(3, 3), stride=(2, 2), padding=(1, 1), bias=False)
                  (bn1): BatchNorm2d(512, eps=1e-05, momentum=0.1, affine=True, track_running_stats=True)
                  (relu1): ReLU(inplace=True)
                  (conv2): Conv2d(512, 512, kernel_size=(3, 3), stride=(1, 1), padding=(1, 1), bias=False)
                  (bn2): BatchNorm2d(512, eps=1e-05, momentum=0.1, affine=True, track_running_stats=True)
                  (skip): Sequential(
                    (0): Conv2d(384, 512, kernel_size=(1, 1), stride=(2, 2), bias=False)
                    (1): BatchNorm2d(512, eps=1e-05, momentum=0.1, affine=True, track_running_stats=True)
                  )
                  (relu): ReLU(inplace=True)
                )
                (1): residual(
                  (conv1): Conv2d(512, 512, kernel_size=(3, 3), stride=(1, 1), padding=(1, 1), bias=False)
                  (bn1): BatchNorm2d(512, eps=1e-05, momentum=0.1, affine=True, track_running_stats=True)
                  (relu1): ReLU(inplace=True)
                  (conv2): Conv2d(512, 512, kernel_size=(3, 3), stride=(1, 1), padding=(1, 1), bias=False)
                  (bn2): BatchNorm2d(512, eps=1e-05, momentum=0.1, affine=True, track_running_stats=True)
                  (skip): Sequential()
                  (relu): ReLU(inplace=True)
                )
              )
              (low2): Sequential(
                (0): residual(
                  (conv1): Conv2d(512, 512, kernel_size=(3, 3), stride=(1, 1), padding=(1, 1), bias=False)
                  (bn1): BatchNorm2d(512, eps=1e-05, momentum=0.1, affine=True, track_running_stats=True)
                  (relu1): ReLU(inplace=True)
                  (conv2): Conv2d(512, 512, kernel_size=(3, 3), stride=(1, 1), padding=(1, 1), bias=False)
                  (bn2): BatchNorm2d(512, eps=1e-05, momentum=0.1, affine=True, track_running_stats=True)
                  (skip): Sequential()
                  (relu): ReLU(inplace=True)
                )
                (1): residual(
                  (conv1): Conv2d(512, 512, kernel_size=(3, 3), stride=(1, 1), padding=(1, 1), bias=False)
                  (bn1): BatchNorm2d(512, eps=1e-05, momentum=0.1, affine=True, track_running_stats=True)
                  (relu1): ReLU(inplace=True)
                  (conv2): Conv2d(512, 512, kernel_size=(3, 3), stride=(1, 1), padding=(1, 1), bias=False)
                  (bn2): BatchNorm2d(512, eps=1e-05, momentum=0.1, affine=True, track_running_stats=True)
                  (skip): Sequential()
                  (relu): ReLU(inplace=True)
                )
                (2): residual(
                  (conv1): Conv2d(512, 512, kernel_size=(3, 3), stride=(1, 1), padding=(1, 1), bias=False)
                  (bn1): BatchNorm2d(512, eps=1e-05, momentum=0.1, affine=True, track_running_stats=True)
                  (relu1): ReLU(inplace=True)
                  (conv2): Conv2d(512, 512, kernel_size=(3, 3), stride=(1, 1), padding=(1, 1), bias=False)
                  (bn2): BatchNorm2d(512, eps=1e-05, momentum=0.1, affine=True, track_running_stats=True)
                  (skip): Sequential()
                  (relu): ReLU(inplace=True)
                )
                (3): residual(
                  (conv1): Conv2d(512, 512, kernel_size=(3, 3), stride=(1, 1), padding=(1, 1), bias=False)
                  (bn1): BatchNorm2d(512, eps=1e-05, momentum=0.1, affine=True, track_running_stats=True)
                  (relu1): ReLU(inplace=True)
                  (conv2): Conv2d(512, 512, kernel_size=(3, 3), stride=(1, 1), padding=(1, 1), bias=False)
                  (bn2): BatchNorm2d(512, eps=1e-05, momentum=0.1, affine=True, track_running_stats=True)
                  (skip): Sequential()
                  (relu): ReLU(inplace=True)
                )
              )
              (low3): Sequential(
                (0): residual(
                  (conv1): Conv2d(512, 512, kernel_size=(3, 3), stride=(1, 1), padding=(1, 1), bias=False)
                  (bn1): BatchNorm2d(512, eps=1e-05, momentum=0.1, affine=True, track_running_stats=True)
                  (relu1): ReLU(inplace=True)
                  (conv2): Conv2d(512, 512, kernel_size=(3, 3), stride=(1, 1), padding=(1, 1), bias=False)
                  (bn2): BatchNorm2d(512, eps=1e-05, momentum=0.1, affine=True, track_running_stats=True)
                  (skip): Sequential()
                  (relu): ReLU(inplace=True)
                )
                (1): residual(
                  (conv1): Conv2d(512, 384, kernel_size=(3, 3), stride=(1, 1), padding=(1, 1), bias=False)
                  (bn1): BatchNorm2d(384, eps=1e-05, momentum=0.1, affine=True, track_running_stats=True)
                  (relu1): ReLU(inplace=True)
                  (conv2): Conv2d(384, 384, kernel_size=(3, 3), stride=(1, 1), padding=(1, 1), bias=False)
                  (bn2): BatchNorm2d(384, eps=1e-05, momentum=0.1, affine=True, track_running_stats=True)
                  (skip): Sequential(
                    (0): Conv2d(512, 384, kernel_size=(1, 1), stride=(1, 1), bias=False)
                    (1): BatchNorm2d(384, eps=1e-05, momentum=0.1, affine=True, track_running_stats=True)
                  )
                  (relu): ReLU(inplace=True)
                )
              )
              (up2): Upsample(scale_factor=2.0, mode=nearest)
              (merge): MergeUp()
            )
            (low3): Sequential(
              (0): residual(
                (conv1): Conv2d(384, 384, kernel_size=(3, 3), stride=(1, 1), padding=(1, 1), bias=False)
                (bn1): BatchNorm2d(384, eps=1e-05, momentum=0.1, affine=True, track_running_stats=True)
                (relu1): ReLU(inplace=True)
                (conv2): Conv2d(384, 384, kernel_size=(3, 3), stride=(1, 1), padding=(1, 1), bias=False)
                (bn2): BatchNorm2d(384, eps=1e-05, momentum=0.1, affine=True, track_running_stats=True)
                (skip): Sequential()
                (relu): ReLU(inplace=True)
              )
              (1): residual(
                (conv1): Conv2d(384, 384, kernel_size=(3, 3), stride=(1, 1), padding=(1, 1), bias=False)
                (bn1): BatchNorm2d(384, eps=1e-05, momentum=0.1, affine=True, track_running_stats=True)
                (relu1): ReLU(inplace=True)
                (conv2): Conv2d(384, 384, kernel_size=(3, 3), stride=(1, 1), padding=(1, 1), bias=False)
                (bn2): BatchNorm2d(384, eps=1e-05, momentum=0.1, affine=True, track_running_stats=True)
                (skip): Sequential()
                (relu): ReLU(inplace=True)
              )
            )
            (up2): Upsample(scale_factor=2.0, mode=nearest)
            (merge): MergeUp()
          )
          (low3): Sequential(
            (0): residual(
              (conv1): Conv2d(384, 384, kernel_size=(3, 3), stride=(1, 1), padding=(1, 1), bias=False)
              (bn1): BatchNorm2d(384, eps=1e-05, momentum=0.1, affine=True, track_running_stats=True)
              (relu1): ReLU(inplace=True)
              (conv2): Conv2d(384, 384, kernel_size=(3, 3), stride=(1, 1), padding=(1, 1), bias=False)
              (bn2): BatchNorm2d(384, eps=1e-05, momentum=0.1, affine=True, track_running_stats=True)
              (skip): Sequential()
              (relu): ReLU(inplace=True)
            )
            (1): residual(
              (conv1): Conv2d(384, 384, kernel_size=(3, 3), stride=(1, 1), padding=(1, 1), bias=False)
              (bn1): BatchNorm2d(384, eps=1e-05, momentum=0.1, affine=True, track_running_stats=True)
              (relu1): ReLU(inplace=True)
              (conv2): Conv2d(384, 384, kernel_size=(3, 3), stride=(1, 1), padding=(1, 1), bias=False)
              (bn2): BatchNorm2d(384, eps=1e-05, momentum=0.1, affine=True, track_running_stats=True)
              (skip): Sequential()
              (relu): ReLU(inplace=True)
            )
          )
          (up2): Upsample(scale_factor=2.0, mode=nearest)
          (merge): MergeUp()
        )
        (low3): Sequential(
          (0): residual(
            (conv1): Conv2d(384, 384, kernel_size=(3, 3), stride=(1, 1), padding=(1, 1), bias=False)
            (bn1): BatchNorm2d(384, eps=1e-05, momentum=0.1, affine=True, track_running_stats=True)
            (relu1): ReLU(inplace=True)
            (conv2): Conv2d(384, 384, kernel_size=(3, 3), stride=(1, 1), padding=(1, 1), bias=False)
            (bn2): BatchNorm2d(384, eps=1e-05, momentum=0.1, affine=True, track_running_stats=True)
            (skip): Sequential()
            (relu): ReLU(inplace=True)
          )
          (1): residual(
            (conv1): Conv2d(384, 256, kernel_size=(3, 3), stride=(1, 1), padding=(1, 1), bias=False)
            (bn1): BatchNorm2d(256, eps=1e-05, momentum=0.1, affine=True, track_running_stats=True)
            (relu1): ReLU(inplace=True)
            (conv2): Conv2d(256, 256, kernel_size=(3, 3), stride=(1, 1), padding=(1, 1), bias=False)
            (bn2): BatchNorm2d(256, eps=1e-05, momentum=0.1, affine=True, track_running_stats=True)
            (skip): Sequential(
              (0): Conv2d(384, 256, kernel_size=(1, 1), stride=(1, 1), bias=False)
              (1): BatchNorm2d(256, eps=1e-05, momentum=0.1, affine=True, track_running_stats=True)
            )
            (relu): ReLU(inplace=True)
          )
        )
        (up2): Upsample(scale_factor=2.0, mode=nearest)
        (merge): MergeUp()
      )
      (low3): Sequential(
        (0): residual(
          (conv1): Conv2d(256, 256, kernel_size=(3, 3), stride=(1, 1), padding=(1, 1), bias=False)
          (bn1): BatchNorm2d(256, eps=1e-05, momentum=0.1, affine=True, track_running_stats=True)
          (relu1): ReLU(inplace=True)
          (conv2): Conv2d(256, 256, kernel_size=(3, 3), stride=(1, 1), padding=(1, 1), bias=False)
          (bn2): BatchNorm2d(256, eps=1e-05, momentum=0.1, affine=True, track_running_stats=True)
          (skip): Sequential()
          (relu): ReLU(inplace=True)
        )
        (1): residual(
          (conv1): Conv2d(256, 256, kernel_size=(3, 3), stride=(1, 1), padding=(1, 1), bias=False)
          (bn1): BatchNorm2d(256, eps=1e-05, momentum=0.1, affine=True, track_running_stats=True)
          (relu1): ReLU(inplace=True)
          (conv2): Conv2d(256, 256, kernel_size=(3, 3), stride=(1, 1), padding=(1, 1), bias=False)
          (bn2): BatchNorm2d(256, eps=1e-05, momentum=0.1, affine=True, track_running_stats=True)
          (skip): Sequential()
          (relu): ReLU(inplace=True)
        )
      )
      (up2): Upsample(scale_factor=2.0, mode=nearest)
      (merge): MergeUp()
    )
  )
  (cnvs): ModuleList(
    (0): convolution(
      (conv): Conv2d(256, 256, kernel_size=(3, 3), stride=(1, 1), padding=(1, 1), bias=False)
      (bn): BatchNorm2d(256, eps=1e-05, momentum=0.1, affine=True, track_running_stats=True)
      (relu): ReLU(inplace=True)
    )
    (1): convolution(
      (conv): Conv2d(256, 256, kernel_size=(3, 3), stride=(1, 1), padding=(1, 1), bias=False)
      (bn): BatchNorm2d(256, eps=1e-05, momentum=0.1, affine=True, track_running_stats=True)
      (relu): ReLU(inplace=True)
    )
  )
  (inters): ModuleList(
    (0): residual(
      (conv1): Conv2d(256, 256, kernel_size=(3, 3), stride=(1, 1), padding=(1, 1), bias=False)
      (bn1): BatchNorm2d(256, eps=1e-05, momentum=0.1, affine=True, track_running_stats=True)
      (relu1): ReLU(inplace=True)
      (conv2): Conv2d(256, 256, kernel_size=(3, 3), stride=(1, 1), padding=(1, 1), bias=False)
      (bn2): BatchNorm2d(256, eps=1e-05, momentum=0.1, affine=True, track_running_stats=True)
      (skip): Sequential()
      (relu): ReLU(inplace=True)
    )
  )
  (inters_): ModuleList(
    (0): Sequential(
      (0): Conv2d(256, 256, kernel_size=(1, 1), stride=(1, 1), bias=False)
      (1): BatchNorm2d(256, eps=1e-05, momentum=0.1, affine=True, track_running_stats=True)
    )
  )
  (cnvs_): ModuleList(
    (0): Sequential(
      (0): Conv2d(256, 256, kernel_size=(1, 1), stride=(1, 1), bias=False)
      (1): BatchNorm2d(256, eps=1e-05, momentum=0.1, affine=True, track_running_stats=True)
    )
  )
  (hm): ModuleList(
    (0): Sequential(
      (0): convolution(
        (conv): Conv2d(256, 256, kernel_size=(3, 3), stride=(1, 1), padding=(1, 1))
        (bn): Sequential()
        (relu): ReLU(inplace=True)
      )
      (1): Conv2d(256, 1, kernel_size=(1, 1), stride=(1, 1))
    )
    (1): Sequential(
      (0): convolution(
        (conv): Conv2d(256, 256, kernel_size=(3, 3), stride=(1, 1), padding=(1, 1))
        (bn): Sequential()
        (relu): ReLU(inplace=True)
      )
      (1): Conv2d(256, 1, kernel_size=(1, 1), stride=(1, 1))
    )
  )
  (wh): ModuleList(
    (0): Sequential(
      (0): convolution(
        (conv): Conv2d(256, 256, kernel_size=(3, 3), stride=(1, 1), padding=(1, 1))
        (bn): Sequential()
        (relu): ReLU(inplace=True)
      )
      (1): Conv2d(256, 2, kernel_size=(1, 1), stride=(1, 1))
    )
    (1): Sequential(
      (0): convolution(
        (conv): Conv2d(256, 256, kernel_size=(3, 3), stride=(1, 1), padding=(1, 1))
        (bn): Sequential()
        (relu): ReLU(inplace=True)
      )
      (1): Conv2d(256, 2, kernel_size=(1, 1), stride=(1, 1))
    )
  )
  (hps): ModuleList(
    (0): Sequential(
      (0): convolution(
        (conv): Conv2d(256, 256, kernel_size=(3, 3), stride=(1, 1), padding=(1, 1))
        (bn): Sequential()
        (relu): ReLU(inplace=True)
      )
      (1): Conv2d(256, 34, kernel_size=(1, 1), stride=(1, 1))
    )
    (1): Sequential(
      (0): convolution(
        (conv): Conv2d(256, 256, kernel_size=(3, 3), stride=(1, 1), padding=(1, 1))
        (bn): Sequential()
        (relu): ReLU(inplace=True)
      )
      (1): Conv2d(256, 34, kernel_size=(1, 1), stride=(1, 1))
    )
  )
  (reg): ModuleList(
    (0): Sequential(
      (0): convolution(
        (conv): Conv2d(256, 256, kernel_size=(3, 3), stride=(1, 1), padding=(1, 1))
        (bn): Sequential()
        (relu): ReLU(inplace=True)
      )
      (1): Conv2d(256, 2, kernel_size=(1, 1), stride=(1, 1))
    )
    (1): Sequential(
      (0): convolution(
        (conv): Conv2d(256, 256, kernel_size=(3, 3), stride=(1, 1), padding=(1, 1))
        (bn): Sequential()
        (relu): ReLU(inplace=True)
      )
      (1): Conv2d(256, 2, kernel_size=(1, 1), stride=(1, 1))
    )
  )
  (hm_hp): ModuleList(
    (0): Sequential(
      (0): convolution(
        (conv): Conv2d(256, 256, kernel_size=(3, 3), stride=(1, 1), padding=(1, 1))
        (bn): Sequential()
        (relu): ReLU(inplace=True)
      )
      (1): Conv2d(256, 17, kernel_size=(1, 1), stride=(1, 1))
    )
    (1): Sequential(
      (0): convolution(
        (conv): Conv2d(256, 256, kernel_size=(3, 3), stride=(1, 1), padding=(1, 1))
        (bn): Sequential()
        (relu): ReLU(inplace=True)
      )
      (1): Conv2d(256, 17, kernel_size=(1, 1), stride=(1, 1))
    )
  )
  (hp_offset): ModuleList(
    (0): Sequential(
      (0): convolution(
        (conv): Conv2d(256, 256, kernel_size=(3, 3), stride=(1, 1), padding=(1, 1))
        (bn): Sequential()
        (relu): ReLU(inplace=True)
      )
      (1): Conv2d(256, 2, kernel_size=(1, 1), stride=(1, 1))
    )
    (1): Sequential(
      (0): convolution(
        (conv): Conv2d(256, 256, kernel_size=(3, 3), stride=(1, 1), padding=(1, 1))
        (bn): Sequential()
        (relu): ReLU(inplace=True)
      )
      (1): Conv2d(256, 2, kernel_size=(1, 1), stride=(1, 1))
    )
  )
  (relu): ReLU(inplace=True)
)
hm.0.0.bn hm.0.0.conv
********************
Sequential()
====================
hm.1.0.bn hm.1.0.conv
********************
Sequential()
====================
wh.0.0.bn wh.0.0.conv
********************
Sequential()
====================
wh.1.0.bn wh.1.0.conv
********************
Sequential()
====================
hps.0.0.bn hps.0.0.conv
…
'kps.1.low2.low3.0.conv1', 'kps.1.low2.low3.0.bn1'], ['kps.1.low2.low3.0.conv2', 'kps.1.low2.low3.0.bn2'], ['kps.1.low2.low3.1.conv1', 'kps.1.low2.low3.1.bn1'], ['kps.1.low2.low3.1.conv2', 'kps.1.low2.low3.1.bn2'], ['kps.1.low3.0.conv1', 'kps.1.low3.0.bn1'], ['kps.1.low3.0.conv2', 'kps.1.low3.0.bn2'], ['kps.1.low3.1.conv1', 'kps.1.low3.1.bn1'], ['kps.1.low3.1.conv2', 'kps.1.low3.1.bn2'], ['cnvs.0.conv', 'cnvs.0.bn'], ['cnvs.1.conv', 'cnvs.1.bn'], ['inters.0.conv1', 'inters.0.bn1'], ['inters.0.conv2', 'inters.0.bn2']]
MODEL is HourglassNet(
  (pre): Sequential(
    (0): convolution(
      (conv): Conv2d(3, 128, kernel_size=(7, 7), stride=(2, 2), padding=(3, 3))
      (bn): Identity()
      (relu): ReLU(inplace=True)
    )
    (1): residual(
      (conv1): Conv2d(128, 256, kernel_size=(3, 3), stride=(2, 2), padding=(1, 1))
      (bn1): Identity()
      (relu1): ReLU(inplace=True)
      (conv2): Conv2d(256, 256, kernel_size=(3, 3), stride=(1, 1), padding=(1, 1))
      (bn2): Identity()
      (skip): Sequential(
        (0): Conv2d(128, 256, kernel_size=(1, 1), stride=(2, 2), bias=False)
        (1): BatchNorm2d(256, eps=1e-05, momentum=0.1, affine=True, track_running_stats=True)
      )
      (relu): ReLU(inplace=True)
    )
  )
  (kps): ModuleList(
    (0): kp_module(
      (up1): Sequential(
        (0): residual(
          (conv1): Conv2d(256, 256, kernel_size=(3, 3), stride=(1, 1), padding=(1, 1))
          (bn1): Identity()
          (relu1): ReLU(inplace=True)
          (conv2): Conv2d(256, 256, kernel_size=(3, 3), stride=(1, 1), padding=(1, 1))
          (bn2): Identity()
          (skip): Sequential()
          (relu): ReLU(inplace=True)
        )
        (1): residual(
          (conv1): Conv2d(256, 256, kernel_size=(3, 3), stride=(1, 1), padding=(1, 1))
          (bn1): Identity()
          (relu1): ReLU(inplace=True)
          (conv2): Conv2d(256, 256, kernel_size=(3, 3), stride=(1, 1), padding=(1, 1))
          (bn2): Identity()
          (skip): Sequential()
          (relu): ReLU(inplace=True)
        )
      )
      (max1): Sequential()
      (low1): Sequential(
        (0): residual(
          (conv1): Conv2d(256, 256, kernel_size=(3, 3), stride=(2, 2), padding=(1, 1))
          (bn1): Identity()
          (relu1): ReLU(inplace=True)
          (conv2): Conv2d(256, 256, kernel_size=(3, 3), stride=(1, 1), padding=(1, 1))
          (bn2): Identity()
          (skip): Sequential(
            (0): Conv2d(256, 256, kernel_size=(1, 1), stride=(2, 2), bias=False)
            (1): BatchNorm2d(256, eps=1e-05, momentum=0.1, affine=True, track_running_stats=True)
          )
          (relu): ReLU(inplace=True)
        )
        (1): residual(
          (conv1): Conv2d(256, 256, kernel_size=(3, 3), stride=(1, 1), padding=(1, 1))
          (bn1): Identity()
          (relu1): ReLU(inplace=True)
          (conv2): Conv2d(256, 256, kernel_size=(3, 3), stride=(1, 1), padding=(1, 1))
          (bn2): Identity()
          (skip): Sequential()
          (relu): ReLU(inplace=True)
        )
      )
      (low2): kp_module(
        (up1): Sequential(
          (0): residual(
            (conv1): Conv2d(256, 256, kernel_size=(3, 3), stride=(1, 1), padding=(1, 1))
            (bn1): Identity()
            (relu1): ReLU(inplace=True)
            (conv2): Conv2d(256, 256, kernel_size=(3, 3), stride=(1, 1), padding=(1, 1))
            (bn2): Identity()
            (skip): Sequential()
            (relu): ReLU(inplace=True)
          )
          (1): residual(
            (conv1): Conv2d(256, 256, kernel_size=(3, 3), stride=(1, 1), padding=(1, 1))
            (bn1): Identity()
            (relu1): ReLU(inplace=True)
            (conv2): Conv2d(256, 256, kernel_size=(3, 3), stride=(1, 1), padding=(1, 1))
            (bn2): Identity()
            (skip): Sequential()
            (relu): ReLU(inplace=True)
          )
        )
        (max1): Sequential()
        (low1): Sequential(
          (0): residual(
            (conv1): Conv2d(256, 384, kernel_size=(3, 3), stride=(2, 2), padding=(1, 1))
            (bn1): Identity()
            (relu1): ReLU(inplace=True)
            (conv2): Conv2d(384, 384, kernel_size=(3, 3), stride=(1, 1), padding=(1, 1))
            (bn2): Identity()
            (skip): Sequential(
              (0): Conv2d(256, 384, kernel_size=(1, 1), stride=(2, 2), bias=False)
              (1): BatchNorm2d(384, eps=1e-05, momentum=0.1, affine=True, track_running_stats=True)
            )
            (relu): ReLU(inplace=True)
          )
          (1): residual(
            (conv1): Conv2d(384, 384, kernel_size=(3, 3), stride=(1, 1), padding=(1, 1))
            (bn1): Identity()
            (relu1): ReLU(inplace=True)
            (conv2): Conv2d(384, 384, kernel_size=(3, 3), stride=(1, 1), padding=(1, 1))
            (bn2): Identity()
            (skip): Sequential()
            (relu): ReLU(inplace=True)
          )
        )
        (low2): kp_module(
          (up1): Sequential(
            (0): residual(
              (conv1): Conv2d(384, 384, kernel_size=(3, 3), stride=(1, 1), padding=(1, 1))
              (bn1): Identity()
              (relu1): ReLU(inplace=True)
              (conv2): Conv2d(384, 384, kernel_size=(3, 3), stride=(1, 1), padding=(1, 1))
              (bn2): Identity()
              (skip): Sequential()
              (relu): ReLU(inplace=True)
            )
            (1): residual(
              (conv1): Conv2d(384, 384, kernel_size=(3, 3), stride=(1, 1), padding=(1, 1))
              (bn1): Identity()
              (relu1): ReLU(inplace=True)
              (conv2): Conv2d(384, 384, kernel_size=(3, 3), stride=(1, 1), padding=(1, 1))
              (bn2): Identity()
              (skip): Sequential()
              (relu): ReLU(inplace=True)
            )
          )
          (max1): Sequential()
          (low1): Sequential(
            (0): residual(
              (conv1): Conv2d(384, 384, kernel_size=(3, 3), stride=(2, 2), padding=(1, 1))
              (bn1): Identity()
              (relu1): ReLU(inplace=True)
              (conv2): Conv2d(384, 384, kernel_size=(3, 3), stride=(1, 1), padding=(1, 1))
              (bn2): Identity()
              (skip): Sequential(
                (0): Conv2d(384, 384, kernel_size=(1, 1), stride=(2, 2), bias=False)
                (1): BatchNorm2d(384, eps=1e-05, momentum=0.1, affine=True, track_running_stats=True)
              )
              (relu): ReLU(inplace=True)
            )
            (1): residual(
              (conv1): Conv2d(384, 384, kernel_size=(3, 3), stride=(1, 1), padding=(1, 1))
              (bn1): Identity()
              (relu1): ReLU(inplace=True)
              (conv2): Conv2d(384, 384, kernel_size=(3, 3), stride=(1, 1), padding=(1, 1))
              (bn2): Identity()
              (skip): Sequential()
              (relu): ReLU(inplace=True)
            )
          )
          (low2): kp_module(
            (up1): Sequential(
              (0): residual(
                (conv1): Conv2d(384, 384, kernel_size=(3, 3), stride=(1, 1), padding=(1, 1))
                (bn1): Identity()
                (relu1): ReLU(inplace=True)
                (conv2): Conv2d(384, 384, kernel_size=(3, 3), stride=(1, 1), padding=(1, 1))
                (bn2): Identity()
                (skip): Sequential()
                (relu): ReLU(inplace=True)
              )
              (1): residual(
                (conv1): Conv2d(384, 384, kernel_size=(3, 3), stride=(1, 1), padding=(1, 1))
                (bn1): Identity()
                (relu1): ReLU(inplace=True)
                (conv2): Conv2d(384, 384, kernel_size=(3, 3), stride=(1, 1), padding=(1, 1))
                (bn2): Identity()
                (skip): Sequential()
                (relu): ReLU(inplace=True)
              )
            )
            (max1): Sequential()
            (low1): Sequential(
              (0): residual(
                (conv1): Conv2d(384, 384, kernel_size=(3, 3), stride=(2, 2), padding=(1, 1))
                (bn1): Identity()
                (relu1): ReLU(inplace=True)
                (conv2): Conv2d(384, 384, kernel_size=(3, 3), stride=(1, 1), padding=(1, 1))
                (bn2): Identity()
                (skip): Sequential(
                  (0): Conv2d(384, 384, kernel_size=(1, 1), stride=(2, 2), bias=False)
                  (1): BatchNorm2d(384, eps=1e-05, momentum=0.1, affine=True, track_running_stats=True)
                )
                (relu): ReLU(inplace=True)
              )
              (1): residual(
                (conv1): Conv2d(384, 384, kernel_size=(3, 3), stride=(1, 1), padding=(1, 1))
                (bn1): Identity()
                (relu1): ReLU(inplace=True)
                (conv2): Conv2d(384, 384, kernel_size=(3, 3), stride=(1, 1), padding=(1, 1))
                (bn2): Identity()
                (skip): Sequential()
                (relu): ReLU(inplace=True)
              )
            )
            (low2): kp_module(
              (up1): Sequential(
                (0): residual(
                  (conv1): Conv2d(384, 384, kernel_size=(3, 3), stride=(1, 1), padding=(1, 1))
                  (bn1): Identity()
                  (relu1): ReLU(inplace=True)
                  (conv2): Conv2d(384, 384, kernel_size=(3, 3), stride=(1, 1), padding=(1, 1))
                  (bn2): Identity()
                  (skip): Sequential()
                  (relu): ReLU(inplace=True)
                )
                (1): residual(
                  (conv1): Conv2d(384, 384, kernel_size=(3, 3), stride=(1, 1), padding=(1, 1))
                  (bn1): Identity()
                  (relu1): ReLU(inplace=True)
                  (conv2): Conv2d(384, 384, kernel_size=(3, 3), stride=(1, 1), padding=(1, 1))
                  (bn2): Identity()
                  (skip): Sequential()
                  (relu): ReLU(inplace=True)
                )
              )
              (max1): Sequential()
              (low1): Sequential(
                (0): residual(
                  (conv1): Conv2d(384, 512, kernel_size=(3, 3), stride=(2, 2), padding=(1, 1))
                  (bn1): Identity()
                  (relu1): ReLU(inplace=True)
                  (conv2): Conv2d(512, 512, kernel_size=(3, 3), stride=(1, 1), padding=(1, 1))
                  (bn2): Identity()
                  (skip): Sequential(
                    (0): Conv2d(384, 512, kernel_size=(1, 1), stride=(2, 2), bias=False)
                    (1): BatchNorm2d(512, eps=1e-05, momentum=0.1, affine=True, track_running_stats=True)
                  )
                  (relu): ReLU(inplace=True)
                )
                (1): residual(
                  (conv1): Conv2d(512, 512, kernel_size=(3, 3), stride=(1, 1), padding=(1, 1))
                  (bn1): Identity()
                  (relu1): ReLU(inplace=True)
                  (conv2): Conv2d(512, 512, kernel_size=(3, 3), stride=(1, 1), padding=(1, 1))
                  (bn2): Identity()
                  (skip): Sequential()
                  (relu): ReLU(inplace=True)
                )
              )
              (low2): Sequential(
                (0): residual(
                  (conv1): Conv2d(512, 512, kernel_size=(3, 3), stride=(1, 1), padding=(1, 1))
                  (bn1): Identity()
                  (relu1): ReLU(inplace=True)
                  (conv2): Conv2d(512, 512, kernel_size=(3, 3), stride=(1, 1), padding=(1, 1))
                  (bn2): Identity()
                  (skip): Sequential()
                  (relu): ReLU(inplace=True)
                )
                (1): residual(
                  (conv1): Conv2d(512, 512, kernel_size=(3, 3), stride=(1, 1), padding=(1, 1))
                  (bn1): Identity()
                  (relu1): ReLU(inplace=True)
                  (conv2): Conv2d(512, 512, kernel_size=(3, 3), stride=(1, 1), padding=(1, 1))
                  (bn2): Identity()
                  (skip): Sequential()
                  (relu): ReLU(inplace=True)
                )
                (2): residual(
                  (conv1): Conv2d(512, 512, kernel_size=(3, 3), stride=(1, 1), padding=(1, 1))
                  (bn1): Identity()
                  (relu1): ReLU(inplace=True)
                  (conv2): Conv2d(512, 512, kernel_size=(3, 3), stride=(1, 1), padding=(1, 1))
                  (bn2): Identity()
                  (skip): Sequential()
                  (relu): ReLU(inplace=True)
                )
                (3): residual(
                  (conv1): Conv2d(512, 512, kernel_size=(3, 3), stride=(1, 1), padding=(1, 1))
                  (bn1): Identity()
                  (relu1): ReLU(inplace=True)
                  (conv2): Conv2d(512, 512, kernel_size=(3, 3), stride=(1, 1), padding=(1, 1))
                  (bn2): Identity()
                  (skip): Sequential()
                  (relu): ReLU(inplace=True)
                )
              )
              (low3): Sequential(
                (0): residual(
                  (conv1): Conv2d(512, 512, kernel_size=(3, 3), stride=(1, 1), padding=(1, 1))
                  (bn1): Identity()
                  (relu1): ReLU(inplace=True)
                  (conv2): Conv2d(512, 512, kernel_size=(3, 3), stride=(1, 1), padding=(1, 1))
                  (bn2): Identity()
                  (skip): Sequential()
                  (relu): ReLU(inplace=True)
                )
                (1): residual(
                  (conv1): Conv2d(512, 384, kernel_size=(3, 3), stride=(1, 1), padding=(1, 1))
                  (bn1): Identity()
                  (relu1): ReLU(inplace=True)
                  (conv2): Conv2d(384, 384, kernel_size=(3, 3), stride=(1, 1), padding=(1, 1))
                  (bn2): Identity()
                  (skip): Sequential(
                    (0): Conv2d(512, 384, kernel_size=(1, 1), stride=(1, 1), bias=False)
                    (1): BatchNorm2d(384, eps=1e-05, momentum=0.1, affine=True, track_running_stats=True)
                  )
                  (relu): ReLU(inplace=True)
                )
              )
              (up2): Upsample(scale_factor=2.0, mode=nearest)
              (merge): MergeUp()
            )
            (low3): Sequential(
              (0): residual(
                (conv1): Conv2d(384, 384, kernel_size=(3, 3), stride=(1, 1), padding=(1, 1))
                (bn1): Identity()
                (relu1): ReLU(inplace=True)
                (conv2): Conv2d(384, 384, kernel_size=(3, 3), stride=(1, 1), padding=(1, 1))
                (bn2): Identity()
                (skip): Sequential()
                (relu): ReLU(inplace=True)
              )
              (1): residual(
                (conv1): Conv2d(384, 384, kernel_size=(3, 3), stride=(1, 1), padding=(1, 1))
                (bn1): Identity()
                (relu1): ReLU(inplace=True)
                (conv2): Conv2d(384, 384, kernel_size=(3, 3), stride=(1, 1), padding=(1, 1))
                (bn2): Identity()
                (skip): Sequential()
                (relu): ReLU(inplace=True)
              )
            )
            (up2): Upsample(scale_factor=2.0, mode=nearest)
            (merge): MergeUp()
          )
          (low3): Sequential(
            (0): residual(
              (conv1): Conv2d(384, 384, kernel_size=(3, 3), stride=(1, 1), padding=(1, 1))
              (bn1): Identity()
              (relu1): ReLU(inplace=True)
              (conv2): Conv2d(384, 384, kernel_size=(3, 3), stride=(1, 1), padding=(1, 1))
              (bn2): Identity()
              (skip): Sequential()
              (relu): ReLU(inplace=True)
            )
            (1): residual(
              (conv1): Conv2d(384, 384, kernel_size=(3, 3), stride=(1, 1), padding=(1, 1))
              (bn1): Identity()
              (relu1): ReLU(inplace=True)
              (conv2): Conv2d(384, 384, kernel_size=(3, 3), stride=(1, 1), padding=(1, 1))
              (bn2): Identity()
              (skip): Sequential()
              (relu): ReLU(inplace=True)
            )
          )
          (up2): Upsample(scale_factor=2.0, mode=nearest)
          (merge): MergeUp()
        )
        (low3): Sequential(
          (0): residual(
            (conv1): Conv2d(384, 384, kernel_size=(3, 3), stride=(1, 1), padding=(1, 1))
            (bn1): Identity()
            (relu1): ReLU(inplace=True)
            (conv2): Conv2d(384, 384, kernel_size=(3, 3), stride=(1, 1), padding=(1, 1))
            (bn2): Identity()
            (skip): Sequential()
            (relu): ReLU(inplace=True)
          )
          (1): residual(
            (conv1): Conv2d(384, 256, kernel_size=(3, 3), stride=(1, 1), padding=(1, 1))
            (bn1): Identity()
            (relu1): ReLU(inplace=True)
            (conv2): Conv2d(256, 256, kernel_size=(3, 3), stride=(1, 1), padding=(1, 1))
            (bn2): Identity()
            (skip): Sequential(
              (0): Conv2d(384, 256, kernel_size=(1, 1), stride=(1, 1), bias=False)
              (1): BatchNorm2d(256, eps=1e-05, momentum=0.1, affine=True, track_running_stats=True)
            )
            (relu): ReLU(inplace=True)
          )
        )
        (up2): Upsample(scale_factor=2.0, mode=nearest)
        (merge): MergeUp()
      )
      (low3): Sequential(
        (0): residual(
          (conv1): Conv2d(256, 256, kernel_size=(3, 3), stride=(1, 1), padding=(1, 1))
          (bn1): Identity()
          (relu1): ReLU(inplace=True)
          (conv2): Conv2d(256, 256, kernel_size=(3, 3), stride=(1, 1), padding=(1, 1))
          (bn2): Identity()
          (skip): Sequential()
          (relu): ReLU(inplace=True)
        )
        (1): residual(
          (conv1): Conv2d(256, 256, kernel_size=(3, 3), stride=(1, 1), padding=(1, 1))
          (bn1): Identity()
          (relu1): ReLU(inplace=True)
          (conv2): Conv2d(256, 256, kernel_size=(3, 3), stride=(1, 1), padding=(1, 1))
          (bn2): Identity()
          (skip): Sequential()
          (relu): ReLU(inplace=True)
        )
      )
      (up2): Upsample(scale_factor=2.0, mode=nearest)
      (merge): MergeUp()
    )
    (1): kp_module(
      (up1): Sequential(
        (0): residual(
          (conv1): Conv2d(256, 256, kernel_size=(3, 3), stride=(1, 1), padding=(1, 1))
          (bn1): Identity()
          (relu1): ReLU(inplace=True)
          (conv2): Conv2d(256, 256, kernel_size=(3, 3), stride=(1, 1), padding=(1, 1))
          (bn2): Identity()
          (skip): Sequential()
          (relu): ReLU(inplace=True)
        )
        (1): residual(
          (conv1): Conv2d(256, 256, kernel_size=(3, 3), stride=(1, 1), padding=(1, 1))
          (bn1): Identity()
          (relu1): ReLU(inplace=True)
          (conv2): Conv2d(256, 256, kernel_size=(3, 3), stride=(1, 1), padding=(1, 1))
          (bn2): Identity()
          (skip): Sequential()
          (relu): ReLU(inplace=True)
        )
      )
      (max1): Sequential()
      (low1): Sequential(
        (0): residual(
          (conv1): Conv2d(256, 256, kernel_size=(3, 3), stride=(2, 2), padding=(1, 1))
          (bn1): Identity()
          (relu1): ReLU(inplace=True)
          (conv2): Conv2d(256, 256, kernel_size=(3, 3), stride=(1, 1), padding=(1, 1))
          (bn2): Identity()
          (skip): Sequential(
            (0): Conv2d(256, 256, kernel_size=(1, 1), stride=(2, 2), bias=False)
            (1): BatchNorm2d(256, eps=1e-05, momentum=0.1, affine=True, track_running_stats=True)
          )
          (relu): ReLU(inplace=True)
        )
        (1): residual(
          (conv1): Conv2d(256, 256, kernel_size=(3, 3), stride=(1, 1), padding=(1, 1))
          (bn1): Identity()
          (relu1): ReLU(inplace=True)
          (conv2): Conv2d(256, 256, kernel_size=(3, 3), stride=(1, 1), padding=(1, 1))
          (bn2): Identity()
          (skip): Sequential()
          (relu): ReLU(inplace=True)
        )
      )
      (low2): kp_module(
        (up1): Sequential(
          (0): residual(
            (conv1): Conv2d(256, 256, kernel_size=(3, 3), stride=(1, 1), padding=(1, 1))
            (bn1): Identity()
            (relu1): ReLU(inplace=True)
            (conv2): Conv2d(256, 256, kernel_size=(3, 3), stride=(1, 1), padding=(1, 1))
            (bn2): Identity()
            (skip): Sequential()
            (relu): ReLU(inplace=True)
          )
          (1): residual(
            (conv1): Conv2d(256, 256, kernel_size=(3, 3), stride=(1, 1), padding=(1, 1))
            (bn1): Identity()
            (relu1): ReLU(inplace=True)
            (conv2): Conv2d(256, 256, kernel_size=(3, 3), stride=(1, 1), padding=(1, 1))
            (bn2): Identity()
            (skip): Sequential()
            (relu): ReLU(inplace=True)
          )
        )
        (max1): Sequential()
        (low1): Sequential(
          (0): residual(
            (conv1): Conv2d(256, 384, kernel_size=(3, 3), stride=(2, 2), padding=(1, 1))
            (bn1): Identity()
            (relu1): ReLU(inplace=True)
            (conv2): Conv2d(384, 384, kernel_size=(3, 3), stride=(1, 1), padding=(1, 1))
            (bn2): Identity()
            (skip): Sequential(
              (0): Conv2d(256, 384, kernel_size=(1, 1), stride=(2, 2), bias=False)
              (1): BatchNorm2d(384, eps=1e-05, momentum=0.1, affine=True, track_running_stats=True)
            )
            (relu): ReLU(inplace=True)
          )
          (1): residual(
            (conv1): Conv2d(384, 384, kernel_size=(3, 3), stride=(1, 1), padding=(1, 1))
            (bn1): Identity()
            (relu1): ReLU(inplace=True)
            (conv2): Conv2d(384, 384, kernel_size=(3, 3), stride=(1, 1), padding=(1, 1))
            (bn2): Identity()
            (skip): Sequential()
            (relu): ReLU(inplace=True)
          )
        )
        (low2): kp_module(
          (up1): Sequential(
            (0): residual(
              (conv1): Conv2d(384, 384, kernel_size=(3, 3), stride=(1, 1), padding=(1, 1))
              (bn1): Identity()
              (relu1): ReLU(inplace=True)
              (conv2): Conv2d(384, 384, kernel_size=(3, 3), stride=(1, 1), padding=(1, 1))
              (bn2): Identity()
              (skip): Sequential()
              (relu): ReLU(inplace=True)
            )
            (1): residual(
              (conv1): Conv2d(384, 384, kernel_size=(3, 3), stride=(1, 1), padding=(1, 1))
              (bn1): Identity()
              (relu1): ReLU(inplace=True)
              (conv2): Conv2d(384, 384, kernel_size=(3, 3), stride=(1, 1), padding=(1, 1))
              (bn2): Identity()
              (skip): Sequential()
              (relu): ReLU(inplace=True)
            )
          )
          (max1): Sequential()
          (low1): Sequential(
            (0): residual(
              (conv1): Conv2d(384, 384, kernel_size=(3, 3), stride=(2, 2), padding=(1, 1))
              (bn1): Identity()
              (relu1): ReLU(inplace=True)
              (conv2): Conv2d(384, 384, kernel_size=(3, 3), stride=(1, 1), padding=(1, 1))
              (bn2): Identity()
              (skip): Sequential(
                (0): Conv2d(384, 384, kernel_size=(1, 1), stride=(2, 2), bias=False)
                (1): BatchNorm2d(384, eps=1e-05, momentum=0.1, affine=True, track_running_stats=True)
              )
              (relu): ReLU(inplace=True)
            )
            (1): residual(
              (conv1): Conv2d(384, 384, kernel_size=(3, 3), stride=(1, 1), padding=(1, 1))
              (bn1): Identity()
              (relu1): ReLU(inplace=True)
              (conv2): Conv2d(384, 384, kernel_size=(3, 3), stride=(1, 1), padding=(1, 1))
              (bn2): Identity()
              (skip): Sequential()
              (relu): ReLU(inplace=True)
            )
          )
          (low2): kp_module(
            (up1): Sequential(
              (0): residual(
                (conv1): Conv2d(384, 384, kernel_size=(3, 3), stride=(1, 1), padding=(1, 1))
                (bn1): Identity()
                (relu1): ReLU(inplace=True)
                (conv2): Conv2d(384, 384, kernel_size=(3, 3), stride=(1, 1), padding=(1, 1))
                (bn2): Identity()
                (skip): Sequential()
                (relu): ReLU(inplace=True)
              )
              (1): residual(
                (conv1): Conv2d(384, 384, kernel_size=(3, 3), stride=(1, 1), padding=(1, 1))
                (bn1): Identity()
                (relu1): ReLU(inplace=True)
                (conv2): Conv2d(384, 384, kernel_size=(3, 3), stride=(1, 1), padding=(1, 1))
                (bn2): Identity()
                (skip): Sequential()
                (relu): ReLU(inplace=True)
              )
            )
            (max1): Sequential()
            (low1): Sequential(
              (0): residual(
                (conv1): Conv2d(384, 384, kernel_size=(3, 3), stride=(2, 2), padding=(1, 1))
                (bn1): Identity()
                (relu1): ReLU(inplace=True)
                (conv2): Conv2d(384, 384, kernel_size=(3, 3), stride=(1, 1), padding=(1, 1))
                (bn2): Identity()
                (skip): Sequential(
                  (0): Conv2d(384, 384, kernel_size=(1, 1), stride=(2, 2), bias=False)
                  (1): BatchNorm2d(384, eps=1e-05, momentum=0.1, affine=True, track_running_stats=True)
                )
                (relu): ReLU(inplace=True)
              )
              (1): residual(
                (conv1): Conv2d(384, 384, kernel_size=(3, 3), stride=(1, 1), padding=(1, 1))
                (bn1): Identity()
                (relu1): ReLU(inplace=True)
                (conv2): Conv2d(384, 384, kernel_size=(3, 3), stride=(1, 1), padding=(1, 1))
                (bn2): Identity()
                (skip): Sequential()
                (relu): ReLU(inplace=True)
              )
            )
            (low2): kp_module(
              (up1): Sequential(
                (0): residual(
                  (conv1): Conv2d(384, 384, kernel_size=(3, 3), stride=(1, 1), padding=(1, 1))
                  (bn1): Identity()
                  (relu1): ReLU(inplace=True)
                  (conv2): Conv2d(384, 384, kernel_size=(3, 3), stride=(1, 1), padding=(1, 1))
                  (bn2): Identity()
                  (skip): Sequential()
                  (relu): ReLU(inplace=True)
                )
                (1): residual(
                  (conv1): Conv2d(384, 384, kernel_size=(3, 3), stride=(1, 1), padding=(1, 1))
                  (bn1): Identity()
                  (relu1): ReLU(inplace=True)
                  (conv2): Conv2d(384, 384, kernel_size=(3, 3), stride=(1, 1), padding=(1, 1))
                  (bn2): Identity()
                  (skip): Sequential()
                  (relu): ReLU(inplace=True)
                )
              )
              (max1): Sequential()
              (low1): Sequential(
                (0): residual(
                  (conv1): Conv2d(384, 512, kernel_size=(3, 3), stride=(2, 2), padding=(1, 1))
                  (bn1): Identity()
                  (relu1): ReLU(inplace=True)
                  (conv2): Conv2d(512, 512, kernel_size=(3, 3), stride=(1, 1), padding=(1, 1))
                  (bn2): Identity()
                  (skip): Sequential(
                    (0): Conv2d(384, 512, kernel_size=(1, 1), stride=(2, 2), bias=False)
                    (1): BatchNorm2d(512, eps=1e-05, momentum=0.1, affine=True, track_running_stats=True)
                  )
                  (relu): ReLU(inplace=True)
                )
                (1): residual(
                  (conv1): Conv2d(512, 512, kernel_size=(3, 3), stride=(1, 1), padding=(1, 1))
                  (bn1): Identity()
                  (relu1): ReLU(inplace=True)
                  (conv2): Conv2d(512, 512, kernel_size=(3, 3), stride=(1, 1), padding=(1, 1))
                  (bn2): Identity()
                  (skip): Sequential()
                  (relu): ReLU(inplace=True)
                )
              )
              (low2): Sequential(
                (0): residual(
                  (conv1): Conv2d(512, 512, kernel_size=(3, 3), stride=(1, 1), padding=(1, 1))
                  (bn1): Identity()
                  (relu1): ReLU(inplace=True)
                  (conv2): Conv2d(512, 512, kernel_size=(3, 3), stride=(1, 1), padding=(1, 1))
                  (bn2): Identity()
                  (skip): Sequential()
                  (relu): ReLU(inplace=True)
                )
                (1): residual(
                  (conv1): Conv2d(512, 512, kernel_size=(3, 3), stride=(1, 1), padding=(1, 1))
                  (bn1): Identity()
                  (relu1): ReLU(inplace=True)
                  (conv2): Conv2d(512, 512, kernel_size=(3, 3), stride=(1, 1), padding=(1, 1))
                  (bn2): Identity()
                  (skip): Sequential()
                  (relu): ReLU(inplace=True)
                )
                (2): residual(
                  (conv1): Conv2d(512, 512, kernel_size=(3, 3), stride=(1, 1), padding=(1, 1))
                  (bn1): Identity()
                  (relu1): ReLU(inplace=True)
                  (conv2): Conv2d(512, 512, kernel_size=(3, 3), stride=(1, 1), padding=(1, 1))
                  (bn2): Identity()
                  (skip): Sequential()
                  (relu): ReLU(inplace=True)
                )
                (3): residual(
                  (conv1): Conv2d(512, 512, kernel_size=(3, 3), stride=(1, 1), padding=(1, 1))
                  (bn1): Identity()
                  (relu1): ReLU(inplace=True)
                  (conv2): Conv2d(512, 512, kernel_size=(3, 3), stride=(1, 1), padding=(1, 1))
                  (bn2): Identity()
                  (skip): Sequential()
                  (relu): ReLU(inplace=True)
                )
              )
              (low3): Sequential(
                (0): residual(
                  (conv1): Conv2d(512, 512, kernel_size=(3, 3), stride=(1, 1), padding=(1, 1))
                  (bn1): Identity()
                  (relu1): ReLU(inplace=True)
                  (conv2): Conv2d(512, 512, kernel_size=(3, 3), stride=(1, 1), padding=(1, 1))
                  (bn2): Identity()
                  (skip): Sequential()
                  (relu): ReLU(inplace=True)
                )
                (1): residual(
                  (conv1): Conv2d(512, 384, kernel_size=(3, 3), stride=(1, 1), padding=(1, 1))
                  (bn1): Identity()
                  (relu1): ReLU(inplace=True)
                  (conv2): Conv2d(384, 384, kernel_size=(3, 3), stride=(1, 1), padding=(1, 1))
                  (bn2): Identity()
                  (skip): Sequential(
                    (0): Conv2d(512, 384, kernel_size=(1, 1), stride=(1, 1), bias=False)
                    (1): BatchNorm2d(384, eps=1e-05, momentum=0.1, affine=True, track_running_stats=True)
                  )
                  (relu): ReLU(inplace=True)
                )
              )
              (up2): Upsample(scale_factor=2.0, mode=nearest)
              (merge): MergeUp()
            )
            (low3): Sequential(
              (0): residual(
                (conv1): Conv2d(384, 384, kernel_size=(3, 3), stride=(1, 1), padding=(1, 1))
                (bn1): Identity()
                (relu1): ReLU(inplace=True)
                (conv2): Conv2d(384, 384, kernel_size=(3, 3), stride=(1, 1), padding=(1, 1))
                (bn2): Identity()
                (skip): Sequential()
                (relu): ReLU(inplace=True)
              )
              (1): residual(
                (conv1): Conv2d(384, 384, kernel_size=(3, 3), stride=(1, 1), padding=(1, 1))
                (bn1): Identity()
                (relu1): ReLU(inplace=True)
                (conv2): Conv2d(384, 384, kernel_size=(3, 3), stride=(1, 1), padding=(1, 1))
                (bn2): Identity()
                (skip): Sequential()
                (relu): ReLU(inplace=True)
              )
            )
            (up2): Upsample(scale_factor=2.0, mode=nearest)
            (merge): MergeUp()
          )
          (low3): Sequential(
            (0): residual(
              (conv1): Conv2d(384, 384, kernel_size=(3, 3), stride=(1, 1), padding=(1, 1))
              (bn1): Identity()
              (relu1): ReLU(inplace=True)
              (conv2): Conv2d(384, 384, kernel_size=(3, 3), stride=(1, 1), padding=(1, 1))
              (bn2): Identity()
              (skip): Sequential()
              (relu): ReLU(inplace=True)
            )
            (1): residual(
              (conv1): Conv2d(384, 384, kernel_size=(3, 3), stride=(1, 1), padding=(1, 1))
              (bn1): Identity()
              (relu1): ReLU(inplace=True)
              (conv2): Conv2d(384, 384, kernel_size=(3, 3), stride=(1, 1), padding=(1, 1))
              (bn2): Identity()
              (skip): Sequential()
              (relu): ReLU(inplace=True)
            )
          )
          (up2): Upsample(scale_factor=2.0, mode=nearest)
          (merge): MergeUp()
        )
        (low3): Sequential(
          (0): residual(
            (conv1): Conv2d(384, 384, kernel_size=(3, 3), stride=(1, 1), padding=(1, 1))
            (bn1): Identity()
            (relu1): ReLU(inplace=True)
            (conv2): Conv2d(384, 384, kernel_size=(3, 3), stride=(1, 1), padding=(1, 1))
            (bn2): Identity()
            (skip): Sequential()
            (relu): ReLU(inplace=True)
          )
          (1): residual(
            (conv1): Conv2d(384, 256, kernel_size=(3, 3), stride=(1, 1), padding=(1, 1))
            (bn1): Identity()
            (relu1): ReLU(inplace=True)
            (conv2): Conv2d(256, 256, kernel_size=(3, 3), stride=(1, 1), padding=(1, 1))
            (bn2): Identity()
            (skip): Sequential(
              (0): Conv2d(384, 256, kernel_size=(1, 1), stride=(1, 1), bias=False)
              (1): BatchNorm2d(256, eps=1e-05, momentum=0.1, affine=True, track_running_stats=True)
            )
            (relu): ReLU(inplace=True)
          )
        )
        (up2): Upsample(scale_factor=2.0, mode=nearest)
        (merge): MergeUp()
      )
      (low3): Sequential(
        (0): residual(
          (conv1): Conv2d(256, 256, kernel_size=(3, 3), stride=(1, 1), padding=(1, 1))
          (bn1): Identity()
          (relu1): ReLU(inplace=True)
          (conv2): Conv2d(256, 256, kernel_size=(3, 3), stride=(1, 1), padding=(1, 1))
          (bn2): Identity()
          (skip): Sequential()
          (relu): ReLU(inplace=True)
        )
        (1): residual(
          (conv1): Conv2d(256, 256, kernel_size=(3, 3), stride=(1, 1), padding=(1, 1))
          (bn1): Identity()
          (relu1): ReLU(inplace=True)
          (conv2): Conv2d(256, 256, kernel_size=(3, 3), stride=(1, 1), padding=(1, 1))
          (bn2): Identity()
          (skip): Sequential()
          (relu): ReLU(inplace=True)
        )
      )
      (up2): Upsample(scale_factor=2.0, mode=nearest)
      (merge): MergeUp()
    )
  )
  (cnvs): ModuleList(
    (0): convolution(
      (conv): Conv2d(256, 256, kernel_size=(3, 3), stride=(1, 1), padding=(1, 1))
      (bn): Identity()
      (relu): ReLU(inplace=True)
    )
    (1): convolution(
      (conv): Conv2d(256, 256, kernel_size=(3, 3), stride=(1, 1), padding=(1, 1))
      (bn): Identity()
      (relu): ReLU(inplace=True)
    )
  )
  (inters): ModuleList(
    (0): residual(
      (conv1): Conv2d(256, 256, kernel_size=(3, 3), stride=(1, 1), padding=(1, 1))
      (bn1): Identity()
      (relu1): ReLU(inplace=True)
      (conv2): Conv2d(256, 256, kernel_size=(3, 3), stride=(1, 1), padding=(1, 1))
      (bn2): Identity()
      (skip): Sequential()
      (relu): ReLU(inplace=True)
    )
  )
  (inters_): ModuleList(
    (0): Sequential(
      (0): Conv2d(256, 256, kernel_size=(1, 1), stride=(1, 1), bias=False)
      (1): BatchNorm2d(256, eps=1e-05, momentum=0.1, affine=True, track_running_stats=True)
    )
  )
  (cnvs_): ModuleList(
    (0): Sequential(
      (0): Conv2d(256, 256, kernel_size=(1, 1), stride=(1, 1), bias=False)
      (1): BatchNorm2d(256, eps=1e-05, momentum=0.1, affine=True, track_running_stats=True)
    )
  )
  (hm): ModuleList(
    (0): Sequential(
      (0): convolution(
        (conv): Conv2d(256, 256, kernel_size=(3, 3), stride=(1, 1), padding=(1, 1))
        (bn): Sequential()
        (relu): ReLU(inplace=True)
      )
      (1): Conv2d(256, 1, kernel_size=(1, 1), stride=(1, 1))
    )
    (1): Sequential(
      (0): convolution(
        (conv): Conv2d(256, 256, kernel_size=(3, 3), stride=(1, 1), padding=(1, 1))
        (bn): Sequential()
        (relu): ReLU(inplace=True)
      )
      (1): Conv2d(256, 1, kernel_size=(1, 1), stride=(1, 1))
    )
  )
  (wh): ModuleList(
    (0): Sequential(
      (0): convolution(
        (conv): Conv2d(256, 256, kernel_size=(3, 3), stride=(1, 1), padding=(1, 1))
        (bn): Sequential()
        (relu): ReLU(inplace=True)
      )
      (1): Conv2d(256, 2, kernel_size=(1, 1), stride=(1, 1))
    )
    (1): Sequential(
      (0): convolution(
        (conv): Conv2d(256, 256, kernel_size=(3, 3), stride=(1, 1), padding=(1, 1))
        (bn): Sequential()
        (relu): ReLU(inplace=True)
      )
      (1): Conv2d(256, 2, kernel_size=(1, 1), stride=(1, 1))
    )
  )
  (hps): ModuleList(
    (0): Sequential(
      (0): convolution(
        (conv): Conv2d(256, 256, kernel_size=(3, 3), stride=(1, 1), padding=(1, 1))
        (bn): Sequential()
        (relu): ReLU(inplace=True)
      )
      (1): Conv2d(256, 34, kernel_size=(1, 1), stride=(1, 1))
    )
    (1): Sequential(
      (0): convolution(
        (conv): Conv2d(256, 256, kernel_size=(3, 3), stride=(1, 1), padding=(1, 1))
        (bn): Sequential()
        (relu): ReLU(inplace=True)
      )
      (1): Conv2d(256, 34, kernel_size=(1, 1), stride=(1, 1))
    )
  )
  (reg): ModuleList(
    (0): Sequential(
      (0): convolution(
        (conv): Conv2d(256, 256, kernel_size=(3, 3), stride=(1, 1), padding=(1, 1))
        (bn): Sequential()
        (relu): ReLU(inplace=True)
      )
      (1): Conv2d(256, 2, kernel_size=(1, 1), stride=(1, 1))
    )
    (1): Sequential(
      (0): convolution(
        (conv): Conv2d(256, 256, kernel_size=(3, 3), stride=(1, 1), padding=(1, 1))
        (bn): Sequential()
        (relu): ReLU(inplace=True)
      )
      (1): Conv2d(256, 2, kernel_size=(1, 1), stride=(1, 1))
    )
  )
  (hm_hp): ModuleList(
    (0): Sequential(
      (0): convolution(
        (conv): Conv2d(256, 256, kernel_size=(3, 3), stride=(1, 1), padding=(1, 1))
        (bn): Sequential()
        (relu): ReLU(inplace=True)
      )
      (1): Conv2d(256, 17, kernel_size=(1, 1), stride=(1, 1))
    )
    (1): Sequential(
      (0): convolution(
        (conv): Conv2d(256, 256, kernel_size=(3, 3), stride=(1, 1), padding=(1, 1))
        (bn): Sequential()
        (relu): ReLU(inplace=True)
      )
      (1): Conv2d(256, 17, kernel_size=(1, 1), stride=(1, 1))
    )
  )
  (hp_offset): ModuleList(
    (0): Sequential(
      (0): convolution(
        (conv): Conv2d(256, 256, kernel_size=(3, 3), stride=(1, 1), padding=(1, 1))
        (bn): Sequential()
        (relu): ReLU(inplace=True)
      )
      (1): Conv2d(256, 2, kernel_size=(1, 1), stride=(1, 1))
    )
    (1): Sequential(
      (0): convolution(
        (conv): Conv2d(256, 256, kernel_size=(3, 3), stride=(1, 1), padding=(1, 1))
        (bn): Sequential()
        (relu): ReLU(inplace=True)
      )
      (1): Conv2d(256, 2, kernel_size=(1, 1), stride=(1, 1))
    )
  )
  (relu): ReLU(inplace=True)
)
ATTENTION!!!
pre.0.conv
[('weight', torch.Size([128, 3, 7, 7])), ('bias', torch.Size([128]))]
==========================================
** pre.0.conv
pre.0.bn
[]
==========================================
** pre.0.bn
pre.0.relu
[]
==========================================
** pre.0.relu
pre.1.conv1
[('weight', torch.Size([256, 128, 3, 3])), ('bias', torch.Size([256]))]
…
